pytorch_logisitc/q3/close.pth (torch_old, 1718 bytes, 5 tensors)

layer1.0.weight f4 [10, 2]
0	0x40cb3ed4	6.3514194
1	0xbed15ce8	-0.40891194
2	0xbece0847	-0.4024069
3	0xbf3dbaa2	-0.74112904
4	0x408b35a3	4.3502975
5	0x40417998	3.0230465
6	0x3f1cba77	0.6122202
7	0x408b967e	4.3621206
8	0xbf029765	-0.5101226
9	0xc0629ba3	-3.5407493
10	0x3f094708	0.5362401
11	0x4058ca73	3.3873565
12	0x40adfbb8	5.4369774
13	0x3ff6e682	1.9289095
14	0xc0abb659	-5.366009
15	0x40a1b8de	5.053817
16	0xbe4d0e35	-0.20024951
17	0xbf2d0a5c	-0.6759393
18	0xbf8d01fa	-1.1016228
19	0xc0dee91f	-6.965957

layer1.0.bias f4 [10]
0	0x41005ef6	8.023184
1	0xc0364549	-2.8479788
2	0xc1156052	-9.336016
3	0x3f8e97e4	1.1140103
4	0xbf7b0849	-0.9805952
5	0x3f6cd53c	0.9251287
6	0xc0cf7ce1	-6.483994
7	0xc0417539	-3.0227797
8	0xc021dcdb	-2.529105
9	0x3f9caab2	1.2239592

layer2.0.weight f4 [10, 10]
0	0xbe416ebb	-0.18889897
1	0x3ee379f8	0.44428992
2	0xc00f0813	-2.2348678
3	0x40a81538	5.25259
4	0xc07a25d8	-3.9085598
5	0x40634d0a	3.551577
6	0xbfb4eea5	-1.4135329
7	0x3ead0cdd	0.33798876
8	0x3d950de6	0.072780415
9	0xbf64578e	-0.891961
10	0xc062164d	-3.5326111
11	0x3f2034a5	0.6258033
12	0xc0b9d4eb	-5.807241
13	0x4010bb8a	2.2614465
14	0xc002707c	-2.0381155
15	0x3fd1c9ff	1.6389769
16	0x40f03631	7.506615
17	0x41098a1a	8.596216
18	0x3f398997	0.7247557
19	0xc0b7c5b2	-5.7428827
20	0x40912c16	4.5366316
21	0xc009dc11	-2.1540568
22	0x3eba5df1	0.36399797
23	0x3ee21a66	0.44160765
24	0x3e6840f8	0.22681034
25	0x3ebfae08	0.37437463
26	0x3f2c2f20	0.6725941
27	0xbf1ed8ad	-0.6204937
28	0xc0305100	-2.7549438
29	0xbf36d14b	-0.71413106
30	0x40699789	3.649874
31	0xbe84ad2e	-0.25913376
32	0x3fb5422a	1.4160817
33	0x3bc18e55	0.00590686
34	0x3f8d1936	1.1023319
35	0xbf3901af	-0.72268194
36	0xc07c2b00	-3.9401245
37	0xbf07bb1a	-0.5301987
38	0xbe734120	-0.23755312
39	0x3ff84f68	1.9399233
40	0x408c6fad	4.3886323
41	0xbde7d39c	-0.11319658
42	0x403f38fa	2.9878526
43	0xbf36be7e	-0.7138442
44	0x3fc3bcc9	1.5291988
45	0xbf9399e4	-1.1531339
46	0xc0dae5c1	-6.840546
47	0xbfa7f919	-1.3122894
48	0x3ef9cdda	0.48789865
49	0x407bc41d	3.9338448
50	0x408b6436	4.355983
51	0xbe0050f3	-0.1253088
52	0x3fdfe188	1.7490702
53	0xbea3bb9c	-0.31979072
54	0x3fa2c785	1.2717139
55	0xbf2ac535	-0.66707164
56	0xc029788d	-2.6479828
57	0xbea9c71e	-0.33159727
58	0xbeb20eb7	-0.34776852
59	0x3f7720a1	0.9653416
60	0x403cb77a	2.9486985
61	0xbd692410	-0.056919158
62	0x3fbaf569	1.4606143
63	0x3f761c18	0.9613662
64	0x3fa887ac	1.3166404
65	0xbe1b75e1	-0.15181686
66	0xc042fcde	-3.0466838
67	0xbf17c972	-0.59291756
68	0xbec17cc6	-0.37790507
69	0x3fa559f2	1.2918074
70	0xc116254b	-9.384105
71	0xbe943204	-0.2894441
72	0xc09a799d	-4.8273454
73	0x401e8bab	2.4772747
74	0xc01089a5	-2.2584012
75	0x400452af	2.0675466
76	0x40f43d2e	7.632468
77	0x3f31020b	0.6914374
78	0xbea1c87b	-0.31598267
79	0xc0a2495d	-5.0714555
80	0xc089782c	-4.2959194
81	0x3de33d72	0.11095704
82	0xc001d5bf	-2.028671
83	0x3f83a062	1.028332
84	0xbfaf5c10	-1.369997
85	0x3f8fb7df	1.1227988
86	0x40acba2f	5.3977275
87	0x3f746dc6	0.9548
88	0xbf07cdec	-0.53048587
89	0xc01703de	-2.359611
90	0x4053bc20	3.3083572
91	0xbfa9ed37	-1.3275517
92	0x3ef5b910	0.47992754
93	0x3e50aace	0.20377657
94	0x3e14774c	0.14498633
95	0xbe4eade7	-0.20183526
96	0xbf2ec273	-0.68265456
97	0x3ece3875	0.40277448
98	0xbfd09515	-1.6295496
99	0xbf8f2941	-1.1184465

layer2.0.bias f4 [10]
0	0x3f498d6c	0.7873142
1	0xc0a04727	-5.0086856
2	0xbdbd46c3	-0.09242012
3	0x4011fa27	2.280893
4	0x402928ff	2.6431272
5	0x401282cf	2.289234
6	0x3ff3f550	1.9059238
7	0xbd02c2a6	-0.031923912
8	0xc032f51f	-2.796211
9	0xbf1f3903	-0.6219637

layer3.0.weight f4 [1, 10]
0	0x404fea7d	3.248687
1	0x403dfbaa	2.9684854
2	0xbf1c7d53	-0.6112873
3	0xbfac697a	-1.3469689
4	0xc0074e96	-2.1141715
5	0xbf9b4ba2	-1.2132456
6	0xbfac461f	-1.3458899
7	0x4074a743	3.8227088
8	0x400ac76b	2.1684215
9	0xbec1a07b	-0.3781775
