pytorch_logisitc/q3/heavy.pth (torch_old, 2426 bytes, 7 tensors)

layer1.0.weight f4 [10, 2]
000000 07 e7 de 3f da 88 88 c0 07 64 c1 c0 f0 56 97 40
       1.7414254 -4.2667055 -6.0434604 4.7293625
000010 30 f2 38 40 28 6b 11 3e 98 f1 d1 bf c2 eb ed 3c
       2.889782 0.14201033 -1.6401854 0.029043082
000020 1b 5d d7 3f 62 4e e5 bf b1 7d 30 40 3a 8c 19 bf
       1.6825289 -1.7914546 2.7576716 -0.59979594
000030 16 dd cb 3f d6 81 9e 40 28 05 7d c0 63 22 44 bf
       1.5926845 4.953349 -3.9534397 -0.7661497
000040 f4 48 83 c0 b5 95 7b 3d 59 58 f6 3f db ea f9 40
       -4.1026554 0.06142207 1.9245712 7.809919

layer1.0.bias f4 [10]
000000 70 3d a2 bf cd 77 44 c0 1f de aa c0 95 ad 7d 3f
       -1.2674999 -3.069812 -5.3396144 0.9909299
000010 a5 23 17 c0 f6 ef 8e 40 30 b8 8b 3f 93 ac 77 40
       -2.3615506 4.466792 1.0915585 3.869908
000020 4e 5f 71 c0 8f 38 0e c0
       -3.771442 -2.222202

layer2.0.weight f4 [10, 10]
000000 f4 0b 2a c0 f5 b2 cf bf 96 6a 4a c0 ce b0 45 be
       -2.6569796 -1.6226488 -3.1627555 -0.19305727
000010 6f 5a 14 40 56 89 b5 bf 15 51 bc 3f 92 68 a5 c0
       2.3180196 -1.4182537 1.4712244 -5.169015
000020 16 f2 04 40 38 be 2a 40 df 6a 7a bf 39 2d 19 be
       2.0772758 2.66786 -0.9781932 -0.14958657
000030 27 5f 39 bf ff 02 27 be 01 a2 d6 3f 41 0f 32 c0
       -0.72410816 -0.16309737 1.676819 -2.782181
000040 fb 31 53 be cb 44 2a bf 47 ff 40 40 eb f8 00 bf
       -0.20624535 -0.6651122 3.015581 -0.5037982
000050 63 9d 3f c0 6f 2b a6 bf f8 52 46 c0 c1 a6 ca be
       -2.9939811 -1.2982005 -3.098814 -0.39580348
000060 83 d1 e2 3f 1a 90 28 bf 6c cf a1 3f aa 02 69 c0
       1.7720188 -0.6584488 1.2641425 -3.6407876
000070 77 18 b2 bf 0e 07 1d 40 2d 0c c4 bd cd ac 31 3f
       -1.3913716 2.4535556 -0.09572635 0.694043
000080 28 4e 02 40 f5 70 c5 3f d0 bf 5a c0 f4 96 cc 3f
       2.0360203 1.5425097 -3.4179573 1.5983567
000090 61 a2 66 bf c0 94 6a 40 1c 6c 88 bf 3d 6c c7 bf
       -0.9009152 3.665329 -1.0657992 -1.5579907
0000a0 39 c9 d8 bc cb 69 ee bf 6d ff b4 bf 69 5e eb be
       -0.026463138 -1.8626035 -1.414045 -0.45970467
0000b0 c7 52 8c 40 c9 44 19 c0 4b 85 31 3e cf 98 46 c0
       4.3851047 -2.3948233 0.17336003 -3.1030767
0000c0 5f e3 0a 41 7d 6b 77 3f bc cf a5 bf de a2 0f bf
       8.6805105 0.9664839 -1.295402 -0.5610789
0000d0 b5 cd 03 c0 df c7 85 bf b4 76 31 40 c2 a1 62 bf
       -2.0594304 -1.0451621 2.77287 -0.8852807
0000e0 d7 bc 5f 3f 3b 55 31 c0 99 c0 ed bf 67 ec ec 3f
       0.8739752 -2.770827 -1.8574401 1.8509644
0000f0 bb 89 9b 3f ad 60 64 40 d6 68 5d c0 04 c7 1b 3f
       1.2151407 3.5684006 -3.4595237 0.6085055
000100 18 eb 36 40 69 f6 b4 bf 45 3e b7 3f ce 85 0f 40
       2.858099 -1.4137698 1.4315878 2.2425418
000110 59 b7 2f bf f8 12 3f 3f a0 c3 14 3d 8f 80 19 40
       -0.6863914 0.7463832 0.036319375 2.3984716
000120 c1 4c 3e c0 9e f2 f1 3e ad 05 b9 3f cd 86 b2 bf
       -2.9734347 0.47255415 1.4454857 -1.3947388
000130 83 f3 15 40 e0 1a 77 3f 22 f0 02 3d 1a 99 e2 3e
       2.3429878 0.96525383 0.03196729 0.44257432
000140 62 ad a5 3f 02 ea b5 c0 8d 4a 0e 40 d3 ac 83 3f
       1.2943537 -5.6848154 2.2233002 1.0287117
000150 d9 71 2e c0 63 83 8f 3f 4b 49 33 bf 3b 47 63 3f
       -2.7256987 1.1211971 -0.7003371 0.88780564
000160 4a 32 fe 3f 3a 1e e0 bf b7 20 c5 3f 92 97 a1 c0
       1.9859097 -1.7509224 1.5400609 -5.049752
000170 76 cb 17 40 ef 2c e2 3f c8 b5 10 c0 ff 69 91 3f
       2.3717933 1.7669963 -2.261095 1.1360472
000180 50 a3 8e bf c3 bf 82 3f 53 c3 30 40 06 b4 d1 bf
       -1.1143589 1.0214771 2.7619216 -1.6383064

layer2.0.bias f4 [10]
000000 fb 66 14 bf 03 2f 80 bf dd 22 db be 3d b2 99 3f
       -0.57969636 -1.0014347 -0.42800036 1.2007519
000010 38 80 11 bf 78 d1 60 bf 83 78 99 bf 44 97 7e bf
       -0.5683627 -0.87819624 -1.1989902 -0.99449563
000020 0f f3 8c 3f 6a c6 2c 3f
       1.1011676 0.67490256

layer3.0.weight f4 [10, 10]
000000 a0 63 8c bf e2 04 ee 3d 36 7f c6 bf 52 62 0a bf
       -1.0967903 0.11622025 -1.5507572 -0.54056275
000010 d0 53 af bf c5 ee a2 bf 5c 41 82 40 93 ff 8c 40
       -1.3697453 -1.2729117 4.0704784 4.406198
000020 25 97 b7 bf bb 67 b9 bf 6b 90 42 c0 cd 72 91 bf
       -1.4343001 -1.4484781 -3.0400646 -1.136316
000030 00 b7 28 c0 9b e0 2e 40 54 9c 70 c0 85 3f dd bf
       -2.6361694 2.7324588 -3.7595415 -1.728501
000040 74 08 97 bf 46 1f 3c bf 28 8d 15 40 b1 75 0d 40
       -1.1799455 -0.7348522 2.3367405 2.2103083
000050 c1 fc 9d 40 85 ce 99 3f f7 a9 8e 40 39 cf 56 c0
       4.9371037 1.201615 4.4582477 -3.3563979
000060 31 61 52 40 7f 07 32 40 10 16 65 3f e9 99 8c 3f
       3.287182 2.7817075 0.8948679 1.098447
000070 75 de 63 c0 9e bc 5a c0 04 f4 3e bf d3 78 69 bf
       -3.5604527 -3.4177623 -0.7459109 -0.9119999
000080 86 18 7f bf 1c 0b d5 3f 0d f6 8f bf aa 13 58 bf
       -0.99646795 1.6644015 -1.1246964 -0.84405005
000090 3e ca a6 bf 1f 69 38 bf 75 73 06 40 eb 73 0c 40
       -1.303047 -0.720354 2.100797 2.194575
0000a0 ad 7e 14 40 0f bb 41 3e 49 a7 04 40 0b 68 14 c0
       2.3202317 0.18919013 2.0727103 -2.3188503
0000b0 5f 83 09 40 9d a3 0e 40 72 7e 21 40 9d 5e a6 3f
       2.1486433 2.2287362 2.5233426 1.2997624
0000c0 46 9e 8f c0 d4 e1 6b c0 a9 72 8d c0 38 29 b3 bf
       -4.4880705 -3.6856585 -4.4202466 -1.3996954
0000d0 d7 06 8c c0 d8 42 45 40 33 6b 79 c0 d1 25 1d c0
       -4.375835 3.0822048 -3.897168 -2.4554331
0000e0 6b 66 80 bf 11 c1 53 bf fa f2 54 40 59 2c 4e 40
       -1.0031255 -0.8271647 3.32733 3.2214568
0000f0 c5 fb 3a bf b2 ad 51 bf f3 f2 70 bf 6a a2 f2 3f
       -0.7304042 -0.81905663 -0.9412071 1.8955815
000100 0c 22 8f bf cb eb 4f bf ca 43 62 bf c0 69 45 bf
       -1.1182265 -0.81219167 -0.8838469 -0.77114487
000110 ee 84 a2 3f 17 26 ab 3f 99 90 62 c0 f9 08 95 bf
       1.2696817 1.3370999 -3.5400755 -1.1643363
000120 71 dc 39 c0 75 01 2a 40 33 b5 4d c0 90 6d ea bf
       -2.9040797 2.656339 -3.2141845 -1.8314686
000130 26 75 ac bf c9 1c c6 be 4d a6 14 40 c8 62 1a 40
       -1.3473251 -0.38693836 2.3226502 2.4122791
000140 07 4c 96 bf a5 94 5c bf 2a b7 b9 bf 26 ac 15 40
       -1.1741952 -0.86164314 -1.4509022 2.338632
000150 a6 cc f0 bf 97 e5 d2 bf a3 70 ab bf 7a 6b 79 bf
       -1.8812454 -1.6476315 -1.3393749 -0.9742962
000160 7f 93 11 40 06 3a 04 40 06 fb fe 3f 35 b6 75 3f
       2.2746274 2.0660415 1.9920356 0.9598115
000170 34 e5 b3 3f 7e d7 2e c0 ff 27 54 40 95 0d f5 3f
       1.4054322 -2.7319026 3.3149412 1.914477
000180 19 fd d4 3f 53 0e db 3e 65 70 1c c0 7c 9b 11 c0
       1.6639739 0.42784366 -2.44436 -2.275115

layer3.0.bias f4 [10]
000000 46 31 30 bf 37 94 be 3f 20 3d 9e bf 40 9f 6f 3f
       -0.68825185 1.4888982 -1.2362404 0.9360237
000010 b1 e3 25 bf 88 db 9f 3f 6a 6b a8 3f 3b 15 a6 3f
       -0.64800555 1.2488871 1.315778 1.2975229
000020 98 aa 93 3f af 74 80 bf
       1.1536436 -1.0035609

layer4.0.weight f4 [1, 10]
000000 b6 7b 41 40 59 59 9e bf 57 16 0f 40 a8 50 4c bf
       3.0231757 -1.2371017 2.2357385 -0.7981057
000010 99 a7 07 40 4b bc b2 bf 3a 23 5e bf d9 7d 92 bf
       2.1196043 -1.3963712 -0.867725 -1.1444656
000020 f1 a6 50 bf 9d b8 dd 3f
       -0.8150473 1.7321965
