pytorch_logisitc/q3/light.pth (torch_old, 2426 bytes, 7 tensors)

layer1.0.weight f4 [10, 2]
000000 97 9d a7 c0 d0 b8 fb bf ba 58 98 bf e0 58 3e 41
       -5.237987 -1.9665775 -1.1902077 11.896698
000010 49 76 ae 3f 0f 58 b7 bf 44 1c 3d c0 7c 03 0d c1
       1.3629848 -1.4323748 -2.9548502 -8.813351
000020 bc 3f 0e 40 e3 1f 98 be 04 23 81 40 17 d7 b5 40
       2.22264 -0.29711828 4.0355244 5.682506
000030 7e cb d7 c0 a8 5d aa 40 61 54 e4 3f 9e 6c dd bf
       -6.7435904 5.3239326 1.783825 -1.7298772
000040 2f b2 81 bb 52 af 10 bf 80 73 bb 3f ba 83 29 40
       -0.0039580087 -0.5651752 1.4644623 2.648665

layer1.0.bias f4 [10]
000000 e2 9c cd 40 65 3f 4a 40 14 33 62 bf 0b ec e9 bf
       6.4254007 3.1601193 -0.8835919 -1.827516
000010 ae 03 bf c0 77 2a c7 c0 f5 a6 b6 bf ac 91 e7 40
       -5.969199 -6.2239337 -1.4269701 7.236532
000020 ce 75 07 c0 ac 51 71 c0
       -2.1165652 -3.7706099

layer2.0.weight f4 [10, 10]
000000 63 1d 28 c0 4b 17 27 40 21 09 e8 3f 9f 5d 8e c0
       -2.6267936 2.6107967 1.8127786 -4.4489284
000010 88 76 37 c0 3f 56 a7 3f 59 80 34 40 2c 77 3b bf
       -2.8666096 1.3073195 2.8203337 -0.73228717
000020 de 7c 2b 3f 07 ad 91 c0 e5 00 58 40 88 da 59 c0
       0.6698741 -4.5523715 3.3750546 -3.403963
000030 17 2a 67 c0 60 19 e3 c0 7f 8d 87 40 2b 98 dd bf
       -3.611944 -7.0968475 4.2360225 -1.7312063
000040 fc 6f 79 c0 9c 89 a2 3f 34 46 7d bf 44 8c b5 40
       -3.89746 1.2698245 -0.98935246 5.6733723
000050 59 19 bb bf 19 d3 e7 3f 5d 24 e8 bf 18 c9 58 c0
       -1.461711 1.8111297 -1.8136097 -3.3872738
000060 69 65 e7 c0 61 ee 0b 40 41 14 87 be 63 2e ed bf
       -7.231129 2.1864245 -0.2638264 -1.8529781
000070 6b c9 93 3f 49 05 61 bf cc 79 2a c0 56 b3 15 40
       1.1545843 -0.8789869 -2.663684 2.3390708
000080 d4 a9 ee 3e c4 e9 8e c0 1f 7b 9f c0 ed a6 fa 3f
       0.46613944 -4.466036 -4.9837794 1.9582192
000090 29 04 d5 3e fc e9 9f bf 7b 48 c5 3f 52 2c fa bf
       0.41604736 -1.2493281 1.5412744 -1.9544775
0000a0 2e 61 b6 bf 4a 38 38 40 27 62 69 40 dc ea 70 40
       -1.4248407 2.8784356 3.6466157 3.7643347
0000b0 82 db 81 c0 cb cd 14 3f 4f 75 4c 40 e0 7e 0f c0
       -4.0580454 0.58126515 3.19466 -2.2421188
0000c0 4a 5e 9e 3f 0e bb 2c c0 c5 57 d6 c0 19 4d 50 40
       1.2372525 -2.698917 -6.698214 3.2547057
0000d0 56 ea 58 c0 e7 65 b5 c0 7d 5e 6a c0 7d 02 41 40
       -3.3893027 -5.6686893 -3.662017 3.0157769
0000e0 f5 ef 75 bc d0 81 e8 bf 88 0a 33 3e 10 64 50 3f
       -0.0150108235 -1.8164616 0.17484486 0.81402683
0000f0 2d 66 94 bf 13 63 04 40 76 53 52 c0 87 ff 8f c0
       -1.1593682 2.068547 -3.286344 -4.4999423
000100 0b 56 38 c1 60 7b 74 40 04 49 81 bf a0 a3 2a c0
       -11.521007 3.8200302 -1.0100408 -2.6662369
000110 1a 82 af 3f af 33 85 bf ef 94 32 bf d3 94 04 c0
       1.3711579 -1.0406398 -0.69758505 -2.0715835
000120 20 b7 da 3f b7 65 ad 40 47 b0 56 40 43 0d 29 3f
       1.7087135 5.4186664 3.354509 0.6603586
000130 69 2f f3 bf 92 e9 3e 40 b4 73 9f bf 6c 7b 19 40
       -1.8998843 2.983006 -1.2457185 2.398158
000140 3b f8 98 c0 49 6d 29 40 8b 51 7b 3d 2b 91 5c c0
       -4.7803016 2.6472952 0.061357062 -3.4463603
000150 82 be a1 c0 6e 2f b5 3f 4f 9d a5 3e df 21 51 bf
       -5.0545053 1.4155099 0.3234658 -0.8169231
000160 ec 55 32 3f ce 06 c0 3d c0 4e f2 3f b8 57 4e c0
       0.69662356 0.09376298 1.8930283 -3.224104
000170 81 25 a2 3f d8 75 eb 40 3c cf 9d 40 87 95 7d bf
       1.2667695 7.358135 4.931547 -0.99056286
000180 a7 ac 10 c0 b4 5d d4 3f 14 f9 8f be 1c b6 4a 40
       -2.2605379 1.6591096 -0.2811972 3.167365

layer2.0.bias f4 [10]
000000 88 b0 d9 bc 5c 4b c9 3e 45 5f bf bd fe 88 a6 be
       -0.026573434 0.39315307 -0.09344343 -0.32526392
000010 31 0f e7 be a4 ce 05 bf 70 32 c0 3b e5 87 d7 3e
       -0.45128778 -0.52268434 0.0058653876 0.42095867
000020 b2 30 2b bf 5b c5 46 3f
       -0.6687118 0.7764489

layer3.0.weight f4 [10, 10]
000000 9f 4c 62 bf d8 b9 5b 40 32 94 81 c0 2e 37 62 c0
       -0.88398165 3.433218 -4.0493402 -3.534618
000010 35 af b8 3e 9f ec a2 c0 9c b1 c8 c0 58 4d 06 40
       0.36071172 -5.0913844 -6.271681 2.0984707
000020 e2 5a 91 c0 79 37 93 40 b4 55 af 40 c5 55 0d c1
       -4.542344 4.6005216 5.479212 -8.83344
000030 ec c5 31 40 a9 84 82 40 3d 46 89 40 6a 59 bf c0
       2.7777052 4.078694 4.289824 -5.979665
000040 46 79 bc 40 1e 89 97 3f a8 0e 4f 3e 8d 9d 41 c0
       5.889804 1.183872 0.20220435 -3.0252411
000050 65 cd c2 c0 6b 26 30 41 c7 f3 83 40 3b ca 93 c0
       -6.0875726 11.009379 4.123508 -4.6184363
000060 b4 b5 eb c0 23 bc bb c0 0a 15 04 41 3e b8 b5 3e
       -7.3659306 -5.866716 8.2551365 0.35492128
000070 53 a7 e5 c0 c6 b1 7b 3f 2b 52 82 c0 09 0b bc 40
       -7.1766753 0.98318136 -4.0725303 5.876347
000080 99 ee aa c0 eb 70 8c c0 f1 02 37 c0 e9 7e a2 c0
       -5.3416257 -4.388784 -2.8595545 -5.077992
000090 ce 3b c3 c0 c0 5f 52 40 4f b1 9f c0 cc 3a e6 40
       -6.1010504 3.287094 -4.990394 7.1946774
0000a0 11 58 0b 40 1e b5 9e c0 ec 0a d0 3f 0e 2b 08 40
       2.1772501 -4.959609 1.6253333 2.1276278
0000b0 ae da e9 3f da 92 1f 40 77 b0 03 40 5e 88 33 c0
       1.8269861 2.493338 2.0576456 -2.8051982
0000c0 67 ac b9 3f 47 ed a2 c0 f0 49 86 bf b0 90 02 40
       1.4505738 -5.0914645 -1.0491314 2.040081
0000d0 d8 ea 11 c0 bf b8 2c c0 1d 5b 03 3c 03 e8 5f c0
       -2.2799587 -2.698776 0.008017329 -3.4985359
0000e0 4f 15 53 c0 d4 fc db 3f a2 d6 3e c0 e1 aa 48 40
       -3.2981756 1.7186532 -2.9818501 3.1354296
0000f0 8c 4b 87 40 2d 28 10 c1 7c 83 11 40 e9 a3 57 40
       4.227972 -9.009809 2.2736502 3.3693793
000100 0d ab 3a 40 bb ca 86 40 56 7a 76 40 0a 60 80 c0
       2.91669 4.2122474 3.8512168 -4.0117235
000110 ec 06 2e 40 48 ee f3 c0 c1 92 71 c0 49 ff fb 40
       2.7191725 -7.622837 -3.7745821 7.8749127
000120 21 66 06 c0 6a eb 33 c0 a3 23 1c c0 16 e5 6f c0
       -2.0999835 -2.8112435 -2.439675 -3.7483573
000130 7e b7 53 c0 44 ca 50 40 79 bd 05 c0 52 86 d5 40
       -3.3080745 3.2623453 -2.0896895 6.6726465
000140 4e a8 6f 40 e2 7f fb c0 14 8a 0e 40 94 a3 42 40
       3.7446475 -7.8593607 2.2271776 3.041234
000150 ef 5f 0b 40 0e 0a 77 40 81 e6 51 40 86 18 52 c0
       2.1777303 3.8599887 3.2796938 -3.2827468
000160 2e 1c f6 3f 6d 9e db c0 f0 86 d2 bf 3d ed 85 40
       1.922735 -6.863089 -1.644743 4.1852098
000170 ef f8 d6 bf 22 fa f0 bf 3c 67 c5 bf 8a 09 1c c0
       -1.6794719 -1.8826334 -1.542213 -2.4380822
000180 06 42 05 c0 1f 94 23 40 d7 0d b9 bf cf 8a 6d 40
       -2.0821548 2.5559156 -1.4457349 3.7115972

layer3.0.bias f4 [10]
000000 1d 74 cf 3f a8 92 85 bd 13 0f a4 3d 18 47 6f 3f
       1.620731 -0.06522113 0.08010688 0.93467855
000010 fa bc 8d bf 39 6d 81 3f 3e 6e 12 c0 fd af 0a 40
       -1.1073296 1.0111457 -2.2879786 2.1669915
000020 aa 61 02 c0 30 6c d1 3f
       -2.037211 1.6361141

layer4.0.weight f4 [1, 10]
000000 2e 5d 17 c0 53 b3 80 c0 20 21 04 41 53 47 60 c0
       -2.3650622 -4.02189 8.258087 -3.5043533
000010 42 e6 58 40 26 08 7f bf 2d be 99 40 71 2c e2 bf
       3.3890538 -0.9962181 4.804465 -1.7669812
000020 62 67 86 40 34 c3 a9 be
       4.20012 -0.3315674
